iris_classification.tflite (tflite, 2020 bytes, 4 tensors)

sequential/dense_1/BiasAdd/ReadVariableOp f4 [3]
00000000: 3c84 88bc d40a 4a3b 27c0 103d
-0.016664617 0.0030829208 0.0353395

sequential/dense/BiasAdd/ReadVariableOp f4 [10]
00000000: 0000 0000 0000 0000 0000 0000 0000 0000
00000010: 0000 0000 abaf 853d 68d7 33ba 538f 08bd
00000020: 0000 0000 ea55 56bd
0.0 0.0 0.0 0.0 0.0 0.06527647 -0.0006860406 -0.03333981
0.0 -0.052328028

sequential/dense/MatMul f4 [10, 4]
00000000: 8047 92bc 2284 0cbf 54f0 19bf de83 afbe
00000010: 4df3 adbe aec7 9bbe c865 9a3e c68d 11bf
00000020: 1145 1ebf 6331 1cbf bc12 42be 74fd eabe
00000030: c4a5 11be 14ac f8be 88a9 213e ae32 26bf
00000040: d17e b3be 2a1d 97be 1f6b 22bf 08d2 6b3e
00000050: ae48 debd 5a2d 323f 4be9 9bbe a75c 9d3e
00000060: 2072 363e 8683 673d 0c9a 393e a5a5 1c3f
00000070: 1699 a93e 0b12 e0bd e09f c13d f016 75bd
00000080: 26b4 8c3e c1b8 10bf 00e6 1dbe 32c7 77be
00000090: 1b09 8dbe e9e4 d43e 0901 3fbe c0af 27bc
-0.01785636 -0.5488912 -0.60132337 -0.34280294 -0.33974686 -0.3042578 0.30155778 -0.56856954
-0.61824137 -0.6101286 -0.18952459 -0.45896494 -0.14223391 -0.48568785 0.15787327 -0.6492108
-0.3505769 -0.29514438 -0.63444704 0.2302934 -0.10853706 0.6960045 -0.30451426 0.3073475
0.17816973 0.056521915 0.1812517 0.61190253 0.33124608 -0.109409414 0.09454322 -0.059836328
0.27481192 -0.5653191 -0.1541977 -0.2419708 -0.2754601 0.41580895 -0.18652739 -0.010234773

sequential/dense_1/MatMul f4 [3, 10]
00000000: c648 0f3f 5517 80be a4fb 18be 8cba 323e
00000010: a8b1 1cbf a1f9 2d3f 1904 4bbf 5a3c f23e
00000020: 4a92 993e ac82 8c3e 7ed6 abbe 941b 8abe
00000030: f8b4 d93e 90c5 663e b032 ebbd b920 563e
00000040: 11b9 abbe c032 0d3e 0639 9e3e fc13 063f
00000050: 589b 993d 99a5 90be d453 183e d028 afbd
00000060: 70a1 f4bd 58ba 4cbe 9369 453e 0f5a e8be
00000070: 00f1 e33e ca58 203f
0.5597042 -0.250178 -0.14939743 0.17453974 -0.6120858 0.6795903 -0.7930313 0.4731167
0.29994422 0.27443445 -0.33562082 -0.26974165 0.4252088 0.22536302 -0.11484277 0.2091092
-0.33539632 0.13788891 0.3090288 0.52374244 0.075003326 -0.2825134 0.14875728 -0.08552706
-0.11944854 -0.1999296 0.19278555 -0.4538121 0.44519806 0.6263548
